chatdata.pth (torch, 15058 bytes, 6 tensors)

l1.weight f4 [8, 232]
00000000: 523f 963d 3a60 873e 986e 51bf 88cd 0d3e
00000010: 2868 2d3e c71f 7abd be4c ff3e 7978 85be
00000020: 9ab1 3bbe 87bc aa3e c72b 1a3f 7c9e a0bd
00000030: 3a07 acbe f58d d73e c99b 0fbe a858 0dbe
00000040: bdb7 083e 7911 473f 17b6 1d3f 839c 0ebe
00000050: beed 363f 48ff e7be 7c33 0c3f a8b4 a4be
00000060: d94c d2be 0a23 a43e 788e 51bf 4d8e 933f
00000070: f156 e23b 0694 fd3e ccf1 9fbe 1e7b 14bd
00000080: 964f bbbe ea5d 253f bc49 8bbe 09d3 83be
00000090: cd53 8ebc 479a 143e 4c57 c7be 3ab0 8fbe
000000a0: 9912 8cbe e4f4 cbbe 5064 a0be 7755 2abe
000000b0: a5ea 1e3f 13bf d53d 0f59 f13e e649 2c3e
000000c0: abf3 9c3d e7bd 9dbd a682 2e3f c4b8 cf3e
000000d0: 22e9 8dbe b0ab ab3e df75 bf3e efae c1be
000000e0: 94ee 1e3c c95a 833f f4fb 69be 1463 553f
000000f0: 16c4 d7bd 1958 c3be 4713 713f 64e5 0a3f
00000100: 1377 803d f8ff 923e 5278 86be 3de5 803e
00000110: 8d4e 4cbd 7c10 6b3e 12c4 bb3e ce08 993e
00000120: 6bef 283f 3cab 20be 0976 1f3f ff9d 10bc
00000130: c63d 1c3f 096a 43be 75f4 0cbd 1054 2bbf
00000140: bc1e 6e3e 9ee6 4abd 7e8c 9dbe 8363 ecbe
00000150: 4b00 a6be cc73 903e 553c 983e 16cc 863e
00000160: 457e 3c3f 6b64 283f 6647 5c3f a492 b9be
00000170: b1f3 f0bd be89 763f cf16 953d f5ee 84be
00000180: 3d67 1abe d45f 923f 44a8 6dbe c59b 0bbf
00000190: da8c 9a3e 12ab 023f bf1f 863f ecf7 f53e
000001a0: 26d0 5b3e bf2a 1e3f d20d de3e 03f5 3abe
000001b0: 1b59 f8be 36b4 973d 2a74 88bd 0c93 b7be
000001c0: bee8 abbe ae91 6cbe 9b88 9dbe 05cd 98bf
000001d0: c8dd 513f 7cfd 173f ac84 503d 3eef 103f
000001e0: 7268 463f daeb f7be c3d9 8abc 4d25 9c3e
000001f0: 08dd b5be b12b dcbe f858 65be 7c97 ec3e
00000200: 1f39 643e 9f8d a53e 185c efbe 7960 5b3f
00000210: 8cbf dc3e 173a 70be 54c6 c03d 4838 b03e
00000220: f8db f9be b3be b53e 92b2 893e 1e3f e9be
00000230: 7e18 3c3e 6882 b6bd 0b8c 1ebe 9fae dd3e
00000240: c968 553e d9d8 bd3e 0ac2 a63e 5ae5 0dbc
00000250: 917c 273e 747c e1be 86ab da3e d534 f43e
00000260: 9fce 11bf 7831 0d3d de03 8abe ab8b 8c3d
00000270: 9302 48be 956f 863f 635f 9bbe e1b6 8abd
00000280: 23a5 bebe 75aa cbbe c0b8 6e3f 80bf 123f
00000290: 1382 2ebd 4083 aa3e 325b a63e 3fdd 78bd
000002a0: 4f69 bfbd e659 c53c 0cd9 893e 8ec0 433e
000002b0: 3a5e 01bd c990 04bf c5cc 4ebf 97d7 7f3e
000002c0: 8370 0d3f 63c4 083e e368 823e 041b 5e3f
000002d0: c8a2 023f 20e1 62bb d683 8fbe 9104 16bf
000002e0: b125 bdbd c402 18bd 9a65 9fbd 275a 32be
000002f0: 6fa1 9ebe fac6 ec3b 401e 123f cb42 5a3f
00000300: 81f5 b1be 4e27 32be 3d2b 81be c8dc a1be
00000310: 8613 c6be 6ffb 3cbe 3758 4abe d42e b5be
00000320: 8d21 b2be 512a c6be db4f fdbc 677e 13be
00000330: 174c 1dbe 5fb9 44bd d6c6 0d3f 698b 153f
00000340: d014 423f f0b5 f53e 251e a2be 0eaf 1d3f
00000350: faef 74be 28d1 bbbe bcd9 1f3f 88bd 6a3f
00000360: 1188 363f d3fa af3e 17e2 163e 6d2a 1c3d
00000370: 1244 b03d 32fe 3bbd 1710 b7be d5c9 2a3e
00000380: 0303 ecbe fb31 873e 5f6b e6be 755b b33e
00000390: af29 a8be a33f 853e 3063 a23e b1dd 9b3e
000003a0: 67aa ff3e 8647 4abd 2773 5cbf 520d 873e
000003b0: b3c3 f13e 9e17 633e 3713 203f ee42 e63e
000003c0: 39b2 013f 1557 cbbb 62e0 56bf fc27 a1be
000003d0: d54e b43e 57e6 28bf 5b15 db3e 60b0 d73e
000003e0: f653 063f 1c9a ae3f 78d0 153f ef8b 533e
000003f0: 133c 05be 5257 8a3e 1cf6 a6be 3b65 873e
0.07336296 0.26440603 -0.8180938 0.13847935 0.16934264 -0.06106546 0.49863237 -0.26068476
-0.18329468 0.3334696 0.6022305 -0.078427285 -0.33599263 0.42100492 -0.14024271 -0.13803351
0.1335134 0.77761036 0.6160597 -0.13926892 0.71456516 -0.45311952 0.5476606 -0.3216908
-0.41074255 0.32057983 -0.81858015 1.1527802 0.006907337 0.49526995 -0.31239164 -0.036250226
-0.36584157 0.64596426 -0.27204692 -0.25746945 -0.017373944 0.14511977 -0.3893379 -0.28064138
-0.2735794 -0.39835274 -0.31326532 -0.16634165 0.6207679 0.10436835 0.4713826 0.16825065
0.076636635 -0.077022366 0.68168104 0.40570652 -0.2771693 0.33529425 0.37394616 -0.37828776
0.009700436 1.026208 -0.22850019 0.83354306 -0.10535447 -0.3815315 0.9417004 0.5425627
0.062727116 0.28710914 -0.26263672 0.25174895 -0.0498796 0.22955507 0.36673027 0.2988953
0.6599032 -0.1569032 0.6228948 -0.008826732 0.6103176 -0.19083418 -0.03441282 -0.66925144
0.23253912 -0.04953634 -0.3077125 -0.4616967 -0.324221 0.28213346 0.2973353 0.2632758
0.7363017 0.65778226 0.86046445 -0.3624469 -0.117652304 0.9630393 0.07279741 -0.2596356
-0.15078445 1.1435494 -0.2320872 -0.5453456 0.30185586 0.5104228 1.0478438 0.48040712
0.21466121 0.61783975 0.4336992 -0.18257527 -0.48505482 0.074074194 -0.066627815 -0.35854375
-0.33576006 -0.23102447 -0.30768284 -1.1937567 0.81979036 0.5937116 0.050907776 0.56615055
0.7750312 -0.48422128 -0.01694954 0.30497208 -0.35520196 -0.43002084 -0.2239722 0.46209323
0.22287415 0.3233461 -0.4674995 0.8569408 0.4311489 -0.2345966 0.09412828 0.3441794
-0.48800635 0.35497054 0.2689405 -0.45555967 0.18368718 -0.08911592 -0.1548311 0.43297288
0.20840754 0.37079504 0.32569915 -0.008660639 0.16356112 -0.44040263 0.42708987 0.47696558
-0.56955904 0.034471005 -0.26956075 0.06862577 -0.19532232 1.0502802 -0.30346212 -0.06773163
-0.37235364 -0.39778486 0.93250656 0.57323456 -0.042604517 0.3330326 0.32491452 -0.06075787
-0.09346258 0.024090718 0.26923406 0.19116423 -0.031584002 -0.51783425 -0.80781204 0.24984585
0.55249804 0.13356166 0.25470647 0.8675997 0.51029634 -0.0034619048 -0.2803027 -0.5860072
-0.09235705 -0.037112013 -0.07783051 -0.17417203 -0.3098254 0.0072258683 0.5707741 0.8525817
-0.34757617 -0.17397806 -0.252283 -0.31613755 -0.3868677 -0.1845529 -0.19760214 -0.3538729
-0.34791222 -0.3870416 -0.030921867 -0.14403687 -0.15361057 -0.048028346 0.55381525 0.5841585
0.7581301 0.4799037 -0.31663623 0.6159524 -0.23919669 -0.3668301 0.6244161 0.9169545
0.7130137 0.3437105 0.14734684 0.038126398 0.086067334 -0.045896716 -0.35754463 0.16678555
-0.46096048 0.2640532 -0.45003793 0.35030714 -0.32844302 0.26025113 0.317163 0.30442575
0.49934694 -0.049384616 -0.8611321 0.2637735 0.4721962 0.22176978 0.6252932 0.44972938
0.5066257 -0.0062054493 -0.8393613 -0.31475818 0.35216394 -0.6597647 0.4278973 0.4212675
0.52471864 1.364078 0.58521223 0.20658849 -0.13011198 0.27019745 -0.32609642 0.2644442

l1.bias f4 [8]
00000000: 4483 513f fdaa 893f e747 193f 8e8a 3e3f
00000010: 3c9f a53f 100f 993f 52e5 a13f 07e7 cd3f
0.8184092 1.0755306 0.5987534 0.7443017 1.293922 1.1957722 1.2648108 1.6086129

l2.weight f4 [8, 8]
00000000: a972 b43f 21a4 8b3f 7844 753f 666c 16bf
00000010: 8dc9 8d3f ab58 a43c 3a8e c5bf a4f3 cc3e
00000020: 1b91 493e dc31 94be cbab 89bd b9a2 69be
00000030: 40a7 33be 9c3c 26be 388c 313e cafe bcbe
00000040: a957 e3be 98e6 e43f 098f f43e d549 1340
00000050: 03c5 c43f d9cb 48be a6cd 0540 8b59 b5bf
00000060: 32ce 78bf 07e7 c43e 642a fbbf 6286 543f
00000070: b8e1 a23e 9465 0240 4975 a33e 34b3 4f3f
00000080: 00f7 d83f 6649 fe3f d7ef 49bf ecca 033e
00000090: 8cca 2b3d 904f 80bf 4c19 c3be fa22 be3f
000000a0: 6325 b03f 1bbb 91bf f234 043e 81c9 c5bf
000000b0: 4222 0540 e87a 2d3f 177d e93f 9625 a03f
000000c0: 43f2 4cbf b2b3 cbbe 5fea 763f bad6 083f
000000d0: 0111 27bf 9ccb 0d3f 7d2f 02bf 9498 8dbd
000000e0: cea1 fcbe 01be 243e 6e31 3240 aa4d 193f
000000f0: af40 dfbf d150 0e40 df29 d53e 9e9e ad3f
1.4097492 1.0909463 0.958076 -0.5875915 1.1077133 0.020061811 -1.5434029 0.40029633
0.1968426 -0.2894429 -0.0672222 -0.2281598 -0.1754427 -0.16234058 0.17338645 -0.3691314
-0.44402817 1.7882872 0.47765377 2.3013813 1.5372623 -0.19609012 2.0906768 -1.4167951
-0.9718963 0.3845751 -1.9622312 0.8301755 0.31812835 2.0374498 0.3192542 0.8113282
1.6950378 1.986615 -0.7888159 0.12870377 0.04194121 -1.002428 -0.38105237 1.4854424
1.376141 -1.1385225 0.12910822 -1.5452119 2.080216 0.67765665 1.8241299 1.251147
-0.8005716 -0.39785534 0.9645137 0.53452647 -0.6526032 0.5538881 -0.5085371 -0.069138676
-0.49342197 0.16088106 2.784267 0.5988413 -1.7441615 2.2236826 0.41633508 1.3564031

l2.bias f4 [8]
00000000: 547c 1b3f 2c65 96be 8a7d 433f 9b9a a83f
00000010: f907 443f 2985 583f 4a3a 2dbe 5c07 f53e
0.60736585 -0.29374063 0.7636343 1.3172182 0.76574665 0.84578186 -0.16916767 0.47857177

l3.weight f4 [23, 8]
00000000: 2892 4fc0 8c67 a3be 4075 ef3c 095c 3c3f
00000010: 8271 06c0 d518 e43e 16e4 28c0 1540 79be
00000020: dc31 a0bf aa87 89be d54c 30bf ec03 f13e
00000030: 3e6b e23c 2c2f 193f 2755 e1bf 6381 59bf
00000040: 6803 f63e 5923 4c3e 354d c6bf 9402 3cbf
00000050: 2ddc efbf 5fae 3a3e fea1 a53f 5f60 b43e
00000060: 3057 43c0 6415 2c3e 8c58 113f 0773 90bd
00000070: 810c 05bf 4cbe 213e 8c71 03bd a2e9 d4bf
00000080: 61d1 3fbf fae1 5f3d 860f 25bf 8a0a ffbf
00000090: dcf2 a3be a02b 2f3f 3e17 0dc0 fc22 3fbd
000000a0: 2ce1 12c0 dcb3 f0bd fb54 ee3e cddb e8be
000000b0: cbf9 ff3e cfeb b6bf 7aba 1ec0 77f7 2e3e
000000c0: 6ad1 583f 0485 6f3d 0a83 8dbf d83b e1bf
000000d0: 042c 043f 57f9 95bf 244f 3fbc c6db 1c3e
000000e0: 1ce8 5cbf 560d 8bbe e4aa 643e fc93 bcbf
000000f0: 65e4 4abf ce6d 303f 0284 65be 0e70 ebbf
00000100: 47ab 94bf 287e 933e 2765 09c0 a68c af3e
00000110: 1b21 bbbe 0b39 6f3e f0a9 f4bf bf2d c43e
00000120: 8562 27c0 a472 b13d feb7 48bf 9197 553e
00000130: e612 09c0 df23 173d 244c 813f 6c9d 173f
00000140: 02b3 f8bf 53f3 5d3e af8d 4f3e ffc4 3c3f
00000150: 45a0 8ebf bbdc 12c0 58ec a03d ffbd 433e
00000160: 9d5e bbbc 0aff 0dbe cabc 1fc0 3dce 92bf
00000170: 87ff 173d ef08 54bd 4db5 a1bf ade5 023f
00000180: 9ee0 383f 763a 8cbe 755f 2dbf f982 e9bf
00000190: 0f6b fc3d 96e3 983e b3bb 723e f404 16c0
000001a0: bffe c03e 3458 34be b203 0ec0 db6f cebf
000001b0: 505c 2e3f 22bb cb3e 33fb 193d f229 7fbf
000001c0: a183 83bf 5531 2bbe b616 0f3f a16e e2bf
000001d0: 24b2 46bf 112d 68be 972e 01c0 0659 b5bd
000001e0: 0f11 f8bf e283 98be 73ef 953e 1e1d d4be
000001f0: d852 02c0 7575 2ebf afd3 363f 27e9 073f
00000200: 53ad 27bf 055b a9be eafd 3e3e d13c f3bf
00000210: e3de 513f 28dd debd 5be6 543e e4fe 8abf
00000220: 273b 46bd 9195 8b3e 7b48 e5bd dba7 82bf
00000230: e7be 3b3e 41c1 21c0 811a a93e dd9c 073f
00000240: 387e d3be 3e8d 71be eb97 15bf a12d 213d
00000250: 1582 053e 4f25 1bbf ebd1 eabf 9775 a53e
00000260: 585e 083f 2e6c 97bd 43ff 3cbf 9fc1 9e3e
00000270: 3d2c 4a3f 9811 29bf d8eb e2bf 245b 94bf
00000280: a1a0 79bf 197a 403e d484 7bbf c6b1 e43e
00000290: 5a82 2ebf 4708 d1bf 819a bc3f 82a5 4d3f
000002a0: 6070 c0be 65d3 adbd a328 423f 08ee 34bf
000002b0: 01cf c43e 8ec1 cabf 2b90 20be f68c cebf
000002c0: 79d2 15c0 596c cabe d6e6 3c3f 2b04 af3e
000002d0: 2e46 debf 97ad 81bf 8a94 4fc0 4eb4 c6be
-3.2432957 -0.31914937 0.029230714 0.73577935 -2.100678 0.44550195 -2.6389213 -0.24340852
-1.2515216 -0.26861316 -0.68867236 0.47073305 0.027639028 0.59837604 -1.7604111 -0.84963053
0.48049474 0.19935359 -1.5492312 -0.73441434 -1.8739067 0.1823058 1.2940061 0.35229775
-3.0521965 0.16805035 0.56775737 -0.0705319 -0.51972204 0.15795249 -0.03209071 -1.6633799
-0.7492886 0.054658867 -0.6447681 -1.9925091 -0.32021224 0.6842594 -2.2045436 -0.046664223
-2.2949934 -0.117530555 0.4654921 -0.45480195 0.49995264 -1.4290713 -2.4801316 0.17086588
0.8469454 0.058476463 -1.1055615 -1.7596388 0.5162966 -1.1716717 -0.011676583 0.15318212
-0.8629167 -0.27158612 0.22330815 -1.4732661 -0.7925475 0.6891755 -0.22413638 -1.8393571
-1.161477 0.28807187 -2.1467988 0.34286994 -0.36548695 0.23361604 -1.9114361 0.38316151
-2.6153882 0.08664444 -0.7840575 0.20858599 -2.1417785 0.036899444 1.0101361 0.5922458
-1.9429629 0.21674852 0.20268892 0.7373809 -1.114266 -2.2947223 0.07857579 0.19115447
-0.022872264 -0.13866821 -2.4958978 -1.1469189 0.037108924 -0.051766332 -1.2633454 0.5113171
0.7221774 -0.27388352 -0.6772378 -1.8243095 0.12325107 0.29861134 0.23704414 -2.3440523
0.37694356 -0.17611772 -2.2189755 -1.6127886 0.6810961 0.39791209 0.037593078 -0.9967338
-1.0274545 -0.16718037 0.5589403 -1.7690011 -0.7761557 -0.22673441 -2.0184686 -0.088548705
-1.9380206 -0.2978812 0.29284248 -0.41428465 -2.0363064 -0.68147975 0.71416754 0.5309014
-0.65498847 -0.33077255 0.18651548 -1.9002935 0.81980723 -0.10882026 0.20790999 -1.0859036
-0.048396256 0.27262548 -0.11195465 -1.0207475 0.18334542 -2.5274203 0.33028033 0.5297373
-0.41307235 -0.23589036 -0.58434933 0.039350156 0.13037904 -0.60603803 -1.8345312 0.32316276
0.5326896 -0.073936805 -0.73827 0.31007096 0.7897375 -0.6604247 -1.7728224 -1.1590314
-0.97510725 0.18796577 -0.98249555 0.4466688 -0.6816765 -1.6330651 1.4734651 0.8033067
-0.37585735 -0.08487586 0.75843257 -0.70675707 0.3843918 -1.5840318 -0.15679996 -1.6136768
-2.3409712 -0.39535788 0.7378973 0.34182867 -1.7365167 -1.01311 -3.243441 -0.38809437

l3.bias f4 [23]
00000000: e29e e03e 9a3d 0ebe 97fd db3d 1531 65bd
00000010: d763 99be 0150 463e 0e8b 513d b244 683c
00000020: 1df9 143e cac8 05bf 5870 1b3e 9876 bcbe
00000030: c9cd 433e 00b1 573e b512 45bb 61fe 34be
00000040: d41c 95be e44c a5be 84ad 05be beca 3a3e
00000050: 814e 233e f7dd 9b3e 7f07 e0bd
0.43871218 -0.13890687 0.10741728 -0.05595501 -0.29958984 0.19366457 0.051158004 0.0141765345
0.14548154 -0.52259505 0.15179574 -0.3680923 0.1912147 0.21063614 -0.0030070965 -0.17675163
-0.29123557 -0.32285225 -0.13054472 0.18241403 0.15947916 0.30442783 -0.1093893
